tf_trusted_custom_op/hi.tflite (tflite, 2868 bytes, 1 tensors)

dense/kernel/transpose f4 [1, 528]
00000000: 5424 823f 4cf5 803e 8c79 94be 73a1 103f
00000010: 7d39 30bf 0105 e9bf 3e02 10bf c2ec 87bc
00000020: 8078 06bd 2c3c 993c 4764 f0bd bd0c b7bd
00000030: 321b 04be f853 e93e 5944 96be 1f62 de3d
00000040: 6944 02bd 7eaa f33c ccca 6d3e 8f10 423e
00000050: 25da 863e 871b a93c 5bc7 dd3d ec8e 0f40
00000060: f1f4 0540 295d 5abe ce1b 56be 2e58 3bbe
00000070: 4575 c6be c206 79bf 41ca a2bf ff6d 58be
00000080: a43e e03d 8fdd 55bd 4fc4 04bd 5de3 b0bd
00000090: f659 203e 5123 32be f4c8 7bbe d520 98bd
000000a0: a97a a2bd 516e cbbc 9747 b63c 30b1 b13d
000000b0: 87da 0a3e 8409 253e 9915 a8bc 2888 d43d
000000c0: a61d 7d3e 7bac 9a3c 1110 043e 383c c33c
000000d0: c111 e33d 1442 ca3d d272 143e 7f8c 3e3e
000000e0: 4707 d9bc fbf4 fa3c 9d31 09be 3777 e83d
000000f0: 7960 fd3c acf2 273e 8b24 923d 2231 233e
00000100: afa1 163e 8f83 d03d 657b aa3c 0233 703b
00000110: c490 bdbd aa0c adbd d160 8fbc 06b3 03be
00000120: 1725 2a3a a5b8 0ebe 8365 3c3f ff91 ffbd
00000130: 1e50 aabd 426a 973e 0b36 983c 9c73 b5bc
00000140: 5701 a4bd 466f b23e 92b9 583d 01a2 10bf
00000150: 81d5 923f 7272 b5be 8b13 aebf d2dd b33e
00000160: 6a1e bd3d dd4b b23d b141 70be 9df3 153f
00000170: e6b2 353f adaa df3c a82c 3bbe 9796 dbbd
00000180: 7a06 433e 5112 d03d d883 2bbe 581e 753d
00000190: 9820 92b9 ab73 e53d 627f 32be cdfb 3d3d
000001a0: 4035 8f3d e5b0 2c3d 3d00 0b3e a0b7 51bd
000001b0: 99c3 9ebd 2e45 ae3c 630b 30be 304f 843d
000001c0: 5f28 94bc 9732 a6be 8764 9c3d 3ff8 313e
000001d0: e330 6fbe 6ed0 5a3c 3bea 19bd 9c5f debe
000001e0: 7856 8abe d934 2abe 8ba5 043e 923c 0a3f
000001f0: 49c0 d73c 1bf6 39bd 2164 45bd ee82 d9bd
00000200: 8e91 c13c e2b5 53be 2125 b7bb 8372 963d
00000210: 9f6b 8dbe dd0c 73bd 4119 3e3c ccd0 b23a
00000220: e5ed f23c 1bc8 613f b1d7 acbe 4d4f b2be
00000230: 87cd d73e 2bf0 033f b367 3d3d c84f fa3d
00000240: 17bb a83e 2507 12bf 5418 99be c160 c43d
00000250: e406 193e c859 02be 7772 07bd 094e 46bf
00000260: 4c7d 223e 1002 0fbe 8422 e43e 18d3 50bf
00000270: 7dd6 42bf c5b2 a2bd e5f7 f0bd 3e7e 853f
00000280: 9a3e 9dbf ab32 28be 1938 723f 8952 dcbc
00000290: 525e e4bd 67f6 fdbc 130c 5b3e f35a 0f3e
000002a0: 0165 34be 9801 18be cae5 833d 6146 903b
000002b0: 63fe ac3c 2a77 083e 4ef1 0740 e2eb 8f3e
000002c0: bf03 bcbe d148 c23f 558d 923e 9474 133e
000002d0: 4241 1c3e 3457 ae3e e2b9 2cbf 63af 50be
000002e0: d4bf d33e 6201 043f 1e00 f8bd 96eb 6f3d
000002f0: 6184 98be 74ab 08be 8e5d 7c3c a6bd febd
00000300: 57f4 293d e607 65be 6d46 ccbd 2e49 14bd
00000310: 5242 3c3c 4da9 b6bd fc05 403f 3cb0 6dbf
00000320: c6f7 83bf 1cf6 80bf eda6 303c 0382 ffbc
00000330: 0588 ce3c 5945 7ebf 83b4 09bf 1147 a8bd
00000340: af4e d9bc 0de4 58bf be37 b9be dabc a1bf
00000350: 8e00 93bf 95b7 83bd 44b6 5bbd 0c00 67bd
00000360: 94fa cabd 472a 74bf 1888 80bf 585e eebe
00000370: 6019 03bf 5665 f6be 3111 d9bd c166 85bd
00000380: 5737 2abe 597f 5cbf 6900 1dbf 6c84 9c3e
00000390: 1a0e 54be 7979 643d f976 32bf 6da2 17bf
000003a0: bd15 14bf f3fd d93d 37fb ce3d a9c0 013e
000003b0: 539b 373e ad06 553e a563 f23d bcd1 77be
000003c0: 48a0 413d 6273 debd 81d7 733e 9bdd e7be
000003d0: 9a86 123d 799f 983c 4452 71be 6370 7b3d
000003e0: 0fd9 babd 18b5 d03d 33a3 96bd dd2e b4bc
000003f0: f461 2c3d 8a8f a4be 6816 eebd ee3c 7a3d
1.0167336 0.25187147 -0.28998983 0.5649635 -0.6883772 -1.8204652 -0.5625342 -0.016592387
-0.03282976 0.01870545 -0.117378764 -0.089379765 -0.12900999 0.45571876 -0.2934902 0.10858559
-0.031803522 0.029744383 0.23221892 0.18951629 0.26338306 0.020643009 0.1082904 2.2430983
2.093075 -0.213246 -0.20909044 -0.18295357 -0.38761345 -0.97275937 -1.2717973 -0.2113571
0.10949448 -0.052213248 -0.032413777 -0.08637116 0.15659317 -0.17396285 -0.24588376 -0.07428137
-0.07933552 -0.024832876 0.022250934 0.08676374 0.13559924 0.16116911 -0.020518111 0.10377532
0.24718341 0.018881073 0.12896754 0.023832425 0.11087371 0.09875885 0.14496925 0.18608283
-0.026492728 0.030634394 -0.13397832 0.113508634 0.03092979 0.16401166 0.07135876 0.15936711
0.14710115 0.10181343 0.020810792 0.0036651497 -0.092561275 -0.08449681 -0.01750222 -0.12861261
0.0006490512 -0.13937624 0.73592395 -0.124790184 -0.083160624 0.29573256 0.018580457 -0.022149853
-0.08008068 0.3485052 0.05291135 -0.564972 1.1471406 -0.35438877 -1.3599714 0.35130173
0.09234317 0.08705876 -0.2346256 0.5857485 0.709761 0.027303064 -0.18278754 -0.10722082
0.1904544 0.101597436 -0.16749513 0.05984339 -0.00027871574 0.112037025 -0.17431405 0.046382714
0.069925785 0.042160887 0.1357431 -0.05120051 -0.07752151 0.021273222 -0.17191844 0.06460416
-0.018085657 -0.32460472 0.076363616 0.17379855 -0.23358493 0.013355358 -0.037576895 -0.4343232
-0.27019095 -0.16621722 0.12953775 0.5399867 0.026336806 -0.04540072 -0.048191193 -0.10620676
0.023628976 -0.20674852 -0.005589143 0.0734606 -0.2762117 -0.05933844 0.011602701 0.0013642549
0.029654453 0.8819596 -0.3375831 -0.34826127 0.42148992 0.5153834 0.046241473 0.12222248
0.32955238 -0.5704215 -0.29901373 0.09588767 0.14944035 -0.12729561 -0.033068147 -0.7746282
0.1586811 -0.1396563 0.44557583 -0.81572104 -0.76108533 -0.07944254 -0.11766032 1.0429151
-1.228473 -0.16425578 0.9461685 -0.026894825 -0.11150803 -0.031001283 0.21391325 0.13999538
-0.17616655 -0.14844358 0.06440313 0.004402921 0.021117395 0.13326707 2.124103 0.28109652
-0.36721608 1.5178472 0.28623453 0.1439994 0.15259269 0.34050906 -0.67471135 -0.20379405
0.4135729 0.5156461 -0.12109397 0.05857428 -0.29788497 -0.13346654 0.015403165 -0.12438516
0.041492786 -0.22366294 -0.0997437 -0.036202602 0.011490421 -0.0891901 0.7500913 -0.9284704
-1.030999 -1.0075107 0.010781986 -0.031189924 0.025211344 -0.99324566 -0.53791064 -0.0821668
-0.026526777 -0.8472298 -0.3617534 -1.2635758 -1.1484544 -0.064315 -0.05364062 -0.05639653
-0.09911075 -0.9537701 -1.0041533 -0.46556354 -0.51210594 -0.48124188 -0.10598982 -0.065137394
-0.16622673 -0.8613182 -0.6132875 0.3056978 -0.20708504 0.055779908 -0.6971279 -0.5923222
-0.5784567 0.1064414 0.10106509 0.1267115 0.17930345 0.20803328 0.11835412 -0.24201101
0.047271997 -0.10861851 0.23812677 -0.4528626 0.035772897 0.01863073 -0.23566538 0.061386477
-0.09123432 0.10190791 -0.073553465 -0.021995002 0.042085603 -0.32140762 -0.116253674 0.061093263
