tf_trusted_custom_op/network_a.tflite (tflite, 3864 bytes, 1 tensors)

MatMul/b/transpose f4 [1, 784]
00000000: f6e6 8ebf 6d4d 573e 74ea f4bf a4ae d53e
00000010: 3840 a13e a6c9 2cbf ce09 193f cf9a e1be
00000020: 0f60 5dbe f35b 5e3f 2fd6 bb3e 1eb8 f0be
00000030: 6428 ffbf c2ae c93e ebb1 70bf 9255 12bf
00000040: d364 adbe f639 10bf a433 013f 4396 043e
00000050: ac61 f3bf df8e 2fbd ca19 a53e d0fe 103f
00000060: 3940 e53e c3de ecbf 1c4d f93d 6116 4f3f
00000070: abfb 893d 08b6 b5bf c377 23bf a27c 73bf
00000080: 6cb9 673e 36db 7bbf e344 c13e a944 ddbf
00000090: d31c 7abf a0f4 b4bf 5434 e7bf f129 32bf
000000a0: 23d9 f53c 85e6 d23d c492 18bf 370b 5cbf
000000b0: 7ebb 44bf b851 14bf ffb6 fabf aca4 22bf
000000c0: 954b 2ebf 3c28 39bf 841c cabf 03fc e0bf
000000d0: 5bad c5bf 9479 fabf 83d9 b23e b04a 413f
000000e0: fb1c febf 3c82 a7bd 8048 b0bf 871b 203e
000000f0: 834d 8abf 59dd 97be b4f3 253f 49f8 fabf
00000100: 91a7 6e3f 9d6c 113e e245 8fbf 5aad 41be
00000110: aa00 1abe 52af 6fbf 578c e3be 7d9b 5b3f
00000120: 2c81 9fbf b367 babf be41 74be 901b 78bf
00000130: 1b52 78bf 822e 2fbe a7d6 e4bf 9058 eabe
00000140: 1d47 57bf e7f7 16bf e4fa dabd defa d0bc
00000150: cf00 80bf 961c cbbf a3da 18bf 963a 5b3e
00000160: 4497 1b3f 2128 7cbf b71b 53be fa0d 9dbe
00000170: ecd4 543e 506e d7be 9334 73bf 8724 a43e
00000180: 0bee 8c3c 2c38 d8bd f5a0 98be 4785 53be
00000190: 19ee 06bf 16e5 5abe 1931 c7bf 0786 9bbe
000001a0: 3f03 4bbf 773a ddbf 359f 173f fef8 1abf
000001b0: eb7a 8c3e f89c b7bf 519e dabf d1b8 52bf
000001c0: c34d f4bf e495 11bf 07d4 e5be a971 24bf
000001d0: 8e11 4f3f 6045 453f 5671 acbf b4de 783f
000001e0: 9e9d 6ebf 0d91 563f 29a6 e8be 06de 92be
000001f0: b8ea 583f a407 f03e 9243 adbf 177e 6d3f
00000200: a137 f0be dbfe 3cbf 6847 cebf 8bba dd3e
00000210: 6d0d 173e 0c2d fdbe 5017 a8bf f8dc 84bf
00000220: e55a 81bf 1599 1bbe d06e 5dbf 382d 0a3e
00000230: 09a7 c2bf 870f ac3c a28d 9abf 5c5b 44bf
00000240: 629e 723f 49cb b6be 1fae dfbf 4336 3fbf
00000250: 7779 773f b6b8 d4bf 97ce 41bf eff9 20bf
00000260: 0c0f 07bf c318 86bf ceb7 51be 3891 d4bf
00000270: f685 e9bf f25e febf e7a2 0ebf ab58 07bf
00000280: 1802 083f 02b4 21bf e008 bf3e 562a 67be
00000290: d704 14bf ceeb e73e 944c 9cbf d845 bf3e
000002a0: e9de d1be 18c6 0f3f 4d91 b2bf fe97 52bf
000002b0: e814 3bbf a6c1 ddbf 6e86 27bf 52b0 42bf
000002c0: fb43 c9bf 58f7 153f 2cee 2b3f 07f5 1a3f
000002d0: b59a 60bf 48f0 b9bf bc0b d7bf 1a96 37bf
000002e0: ddb0 ebbe b472 9fbe cdc1 3ebe f20e 383f
000002f0: c122 b33c 914e c7bf 2d94 acbe f252 8ebf
00000300: dec8 103f 022b 803e dc3e 653f 61f4 c2bc
00000310: f5ac 95be 3f8e 2bbf ff04 0a3f 4602 3d3e
00000320: a8c0 1cbf 1195 363f e7f8 643f a8c6 ca3e
00000330: 2487 6ebf 8ec9 f53d d31b 763f eb8f fa3e
00000340: 475d 91be 8c60 9abe 4e9e 7a3e 3371 87bf
00000350: 7e6a 21bf 3ea5 c1bf 2205 e83e e19b c93e
00000360: 5d77 8cbe 5c28 52be 1800 933d d75a c8be
00000370: 5d7a fd3e e44e 843e 6c94 8cbe 6017 7abe
00000380: ea5c f2bf 13e5 c7bd 529c b2bf bffa 6ebf
00000390: 2829 453e d22c a9be 7c98 70bf 8a35 abbf
000003a0: 51d4 aebf 9d06 153f 1ef8 4bbf 610d d6bf
000003b0: 93c9 c5be d17e 4e3f e627 bcbf 9945 24bf
000003c0: ba70 61bf 243f 65bf 63ff 2fbe 7176 89bf
000003d0: 285d 86bf 2bd2 973d 2e2b 8dbf 544e 3c3f
000003e0: 58da e4bd 3a46 3b3e d5ec f4bf 705a 1dbf
000003f0: d50f 81bf 42c2 a2bf af3f 89bf 2c17 87be
-1.1164234 0.2102563 -1.913405 0.41734803 0.31494308 -0.6749519 0.59780586 -0.44063422
-0.21618675 0.86859053 0.36686847 -0.4701547 -1.9934201 0.39391142 -0.9402148 -0.5716182
-0.33865985 -0.5633844 0.5046942 0.12947945 -1.9014182 -0.042860862 0.32246238 0.56638813
0.4477556 -1.8505481 0.121729106 0.8089352 0.06737455 -1.4196177 -0.63854617 -0.9511205
0.22629327 -0.98381364 0.3774787 -1.7286578 -0.9770023 -1.4137154 -1.8062844 -0.6959525
0.030010765 0.10297874 -0.59598947 -0.8595461 -0.7684859 -0.5793719 -1.9587096 -0.6353252
-0.6808408 -0.7232702 -1.5789952 -1.7576908 -1.5443529 -1.9568353 0.34931573 0.7550459
-1.9852594 -0.08179137 -1.3772125 0.15635501 -1.0804905 -0.29661062 0.64824986 -1.9607021
0.93224436 0.14201589 -1.1193202 -0.18913785 -0.15039316 -0.9362689 -0.44443008 0.8578413
-1.2461295 -1.4562896 -0.23853204 -0.9691706 -0.97000283 -0.17107585 -1.7878007 -0.45770693
-0.84092885 -0.5897202 -0.10692385 -0.025510248 -1.0000247 -1.5868099 -0.59708613 0.21409068
0.6077769 -0.9849873 -0.20616041 -0.30674726 0.20784348 -0.4207635 -0.95002097 0.32059118
0.017203351 -0.10557589 -0.298103 -0.2065631 -0.5270706 -0.21376452 -1.5561858 -0.30375692
-0.7930183 -1.7283467 0.59227306 -0.6053618 0.2743753 -1.4344778 -1.7079564 -0.8231326
-1.9086231 -0.5686934 -0.44888327 -0.6423593 0.8088616 0.7705898 -1.3472087 0.9721482
-0.93209255 0.8381508 -0.4543927 -0.28685015 0.8473315 0.4688083 -1.3536246 0.9277052
-0.4691744 -0.7382638 -1.6115541 0.43306383 0.14751215 -0.4944843 -1.3132114 -1.0379934
-1.0105864 -0.15195115 -0.8649721 0.13493812 -1.5207225 0.021003498 -1.2074473 -0.76701903
0.94772923 -0.3570197 -1.7475013 -0.7469217 0.96669716 -1.6618869 -0.75705856 -0.6288137
-0.52757335 -1.0476307 -0.20480272 -1.6606817 -1.8244007 -1.9872725 -0.5571732 -0.5286967
0.53128195 -0.63165295 0.3731146 -0.22574744 -0.57819885 0.45297092 -1.221087 0.37357974
-0.4099038 0.5616164 -1.3950592 -0.8226317 -0.73078775 -1.7324722 -0.654395 -0.76050293
-1.5723871 0.5858054 0.67160296 0.6053013 -0.87736064 -1.4526453 -1.6800456 -0.7171341
-0.46033373 -0.311422 -0.18628617 0.71897805 0.021867158 -1.5570852 -0.337068 -1.1119063
0.565565 0.25032812 0.8954904 -0.02379817 -0.29233518 -0.67013925 0.53913873 0.18457898
-0.6123147 0.7132121 0.89442295 0.39604688 -0.9317496 0.12001334 0.96136206 0.48937926
-0.28391477 -0.30151784 0.24474451 -1.0581421 -0.6305312 -1.5128553 0.45316416 0.3937674
-0.27434817 -0.20523208 0.07177752 -0.39131805 0.49507418 0.2584144 -0.27456987 -0.2442298
-1.8934605 -0.09760489 -1.3953955 -0.9335136 0.19253981 -0.33042008 -0.9398267 -1.3375714
-1.3658544 0.58213216 -0.7967547 -1.6722833 -0.3863035 0.80662256 -1.4699676 -0.641687
-0.8806263 -0.8954947 -0.17187266 -1.073927 -1.0497179 0.07413133 -1.1028802 0.7355702
-0.11174458 0.18288508 -1.9134775 -0.6146612 -1.0082957 -1.2715533 -1.072256 -0.26384866
