tf_trusted_custom_op/random.tflite (tflite, 2868 bytes, 1 tensors)

dense/kernel/transpose f4 [1, 528]
000000 30 db a7 3d fc b7 2b 3d 40 a3 51 bb 04 77 10 3d
       0.081961036 0.041923508 -0.0031988174 0.035269752
000010 40 e2 c0 3a 98 78 26 bd cc 20 40 3d 62 64 28 bd
       0.0014715865 -0.04064235 0.046906278 -0.041111358
000020 34 d3 9e 3d 1a 67 06 bd a4 8d 2f bd 98 b6 1d 3d
       0.077551275 -0.03281317 -0.04285969 0.038504213
000030 a0 17 19 3d 54 39 bb 3d 98 46 36 3d 80 4d dd ba
       0.037376046 0.09141794 0.044500917 -0.0016884059
000040 90 a7 3e bc b7 45 d5 bd 28 c7 4a bd 94 7c 85 3d
       -0.01163663 -0.10413688 -0.049506336 0.06517902
000050 70 64 1e 3c f2 8c c8 bd 62 9e 32 bd 48 f8 c9 bd
       0.009667501 -0.09792508 -0.043608077 -0.09861809
000060 d0 3c 6f bc 5a 60 80 bd b6 36 10 bd ab 1f c6 bd
       -0.014601901 -0.062683776 -0.035208426 -0.09674009
000070 90 10 6c 3d 76 9e d2 bd c0 2a f1 bc e7 02 85 bd
       0.057632983 -0.1028413 -0.02943933 -0.06494694
000080 ab 95 a7 bd 20 8e cb bd 90 c7 18 3d 20 9e 29 3d
       -0.08182844 -0.099392176 0.037299693 0.041410565
000090 7a c9 cf bd 96 c8 92 bd e6 a9 b8 bd 16 38 04 bd
       -0.101458505 -0.07167165 -0.090167806 -0.03228005
0000a0 00 20 23 3a bb 06 bf bd f4 d1 45 3d 5c e2 c6 3d
       0.0006222725 -0.093274556 0.04829593 0.097111434
0000b0 bf 48 37 bd bc 6f 14 3d 46 a6 a5 bd 5b ab c5 bd
       -0.04474711 0.03623937 -0.08088355 -0.09651824
0000c0 34 01 0a 3d 8e 1e 9a 3d 95 f9 8d bd c0 b4 89 bd
       0.033692554 0.07525359 -0.069323696 -0.067239285
0000d0 00 59 cb 3b f8 0c 88 bc dc 7b bc bc 10 7a 03 3d
       0.006205678 -0.016607746 -0.02300828 0.03209883
0000e0 70 4e cb bc ee d3 a8 3d 74 ce 38 3d 56 60 92 3d
       -0.024817675 0.082435474 0.045118764 0.07147281
0000f0 d0 78 a3 bd 00 b8 2a bc 52 f0 94 3d 44 7b 50 3d
       -0.079820275 -0.010419846 0.072724 0.050898805
000100 0c 21 09 bd ae 7b 09 bd 82 12 82 3d 46 19 76 bd
       -0.03347878 -0.033565216 0.06351186 -0.060082696
000110 98 c1 15 bc 32 61 d2 bd a4 85 49 3d 08 c6 af bd
       -0.009140395 -0.10272445 0.049199715 -0.08582693
000120 20 7b 98 bc d6 da 99 bd 8b 47 5b bd 3c 81 59 3d
       -0.018613398 -0.07512443 -0.053535026 0.053101763
000130 69 3a 98 bd 1c c9 53 3d 14 cc 11 3d 44 d6 ba 3d
       -0.07433016 0.051705465 0.035595015 0.09122899
000140 20 b1 9a 3d e8 a5 bb 3c 61 2b 99 bd 8f 00 4d bd
       0.07553315 0.022906259 -0.07478977 -0.05004936
000150 54 b4 96 bd a4 65 9c bd 2c 3a 1b 3d de 80 8a bd
       -0.073586136 -0.07636574 0.037897274 -0.06762861
000160 d4 f8 b9 bd fc 2e 12 3d 19 3e b0 bd 04 08 38 3d
       -0.09080663 0.03568934 -0.08605594 0.04492952
000170 bc 6e 9f bc b6 78 bf bd 90 1e 81 3d 8c ce 84 3d
       -0.019461982 -0.09349196 0.063046575 0.06484708
000180 e7 6b c1 bd 04 b0 4a 3d d8 7c f9 bc a4 f1 1f 3d
       -0.09444409 0.049484268 -0.030455038 0.039048806
000190 80 ea 80 3c 5d e3 35 bd 20 e2 2c 3d bc 04 6b 3d
       0.015736818 -0.044406284 0.042207837 0.057377562
0001a0 60 4f 1f bb 70 e0 b3 bd d0 b7 cc bb 88 46 94 bd
       -0.0024308786 -0.087830424 -0.006247498 -0.07240015
0001b0 28 77 08 bc 1b cd 9d bd 81 49 51 bd 94 2f 1c bd
       -0.00832919 -0.077051364 -0.05109549 -0.03813131
0001c0 fc 10 00 3d a0 fa d9 bd 86 1b 11 bd f2 ef 3b bd
       0.031266198 -0.10643506 -0.03542664 -0.045883127
0001d0 42 21 8b bd a8 24 dd bc ca f5 c2 bd 9c 01 85 bd
       -0.06793453 -0.026995018 -0.09519537 -0.064944476
0001e0 70 ac 93 3d 00 31 00 3c 70 e0 c3 bb 30 c8 98 3c
       0.07210624 0.0078241825 -0.005977683 0.018650144
0001f0 a4 58 1d 3d b0 cc a2 bb ef d2 44 bd a8 92 0b bd
       0.038414612 -0.0049682483 -0.048052724 -0.03407541
000200 a2 ca d9 3d c2 ba cb 3d 84 15 d3 3d da 55 95 3d
       0.10634352 0.099477306 0.10306838 0.072917655
000210 e2 54 29 bd 66 c3 3d bd da 84 2e bd be 26 9b 3d
       -0.041340716 -0.046328925 -0.042607166 0.07575749
000220 68 9b 75 bc c8 4b e5 bc 64 76 a2 bd 00 90 03 3d
       -0.014990665 -0.027990237 -0.079327375 0.03211975
000230 18 71 36 3d 46 d8 bd bd 40 f2 7d 3b a8 1b 8e bc
       0.04454145 -0.092697665 0.0038749129 -0.017347172
000240 65 d7 3d bd b0 ff 62 3d 4c 41 a5 bd dc 78 33 3d
       -0.046347994 0.055419624 -0.08069095 0.043816432
000250 ec 93 32 3d 77 03 69 bd 0e bc d3 3d 69 3e cb bd
       0.0435981 -0.05688807 0.10338603 -0.09924013
000260 96 31 d7 3d bd 5c 83 bd ec 40 62 3d c8 85 a4 3d
       0.10507505 -0.06414173 0.055237696 0.08033329
000270 a8 6c 3d bd 6c 19 a0 3d 28 c4 55 bd 54 95 71 3d
       -0.0462462 0.07817349 -0.052189022 0.0589803
000280 e0 42 3d 3d 2e f6 80 3d 70 bc c4 3d bc e5 9a 3d
       0.046206355 0.06296955 0.09606254 0.075633496
000290 ec 4b 43 bd b2 47 98 3d 80 fc 9e bb ca c8 c5 bd
       -0.047679827 0.0743555 -0.0048518777 -0.09657438
0002a0 ac 10 b2 bd bc f3 b6 bc 83 64 bb bd 80 d2 23 3a
       -0.08694586 -0.022333018 -0.091500305 0.00062493235
0002b0 44 73 79 3d f8 e3 da bc 98 92 e2 3c 30 15 2b 3c
       0.06090094 -0.026720032 0.027657792 0.010442063
0002c0 08 2b fe 3c 4a 20 b1 bd fa b4 91 bd f0 53 34 bc
       0.031026378 -0.08648737 -0.07114597 -0.01100634
0002d0 b4 bb 2b 3d d0 91 eb bb 9c 57 c7 bc 1a 1d ba 3d
       0.041927055 -0.007189013 -0.024333768 0.09087582
0002e0 28 db 48 3c 78 08 79 bd 30 3a 87 3d 71 b4 a1 bd
       0.012259282 -0.060799092 0.06602895 -0.078957446
0002f0 b8 29 83 bc 1c 2c 43 3d b0 54 20 3d 42 21 b3 3d
       -0.016011104 0.047649488 0.039143264 0.08746578
000300 4e 11 cc bd 98 e0 c0 bc 2c 6c 88 3d c5 df c4 bd
       -0.09964238 -0.023544595 0.06661257 -0.09612993
000310 c4 f4 9c 3d 62 93 8d bd c8 52 29 3d aa 6f a6 bd
       0.07663873 -0.06912877 0.041338712 -0.08126767
000320 54 63 a4 3d ea 23 96 bd ca 24 7e bd 5c 97 89 3d
       0.08026758 -0.07331069 -0.062046804 0.06718323
000330 60 68 d5 3b 0c 71 4e bd c0 27 41 bb 40 4a f2 3a
       0.0065126866 -0.05040078 -0.0029473156 0.0018485263
000340 d8 f4 ab bd 08 f1 fd 3c 88 12 fc bc 15 e9 46 bd
       -0.083963096 0.030998722 -0.030770555 -0.048562128
000350 40 05 b0 3d e7 24 cb bd f8 be 2c 3c 95 68 5c bd
       0.08594751 -0.09919148 0.010543577 -0.053810675
000360 10 a3 f8 bc 40 38 60 3b 28 02 0b 3d d9 9f d1 bd
       -0.030351192 0.0034213215 0.033937603 -0.10235567
000370 cc a5 29 bd b0 27 b0 3d 64 bc 25 3d 68 30 29 bd
       -0.04141788 0.0860132 0.040462866 -0.04130593
000380 84 f5 9f 3d 4a 5a 92 3d c8 d0 64 3c c4 7c 9a 3d
       0.078105 0.071461275 0.013965793 0.075433284
000390 10 63 b2 bd f4 76 91 3d 9a 5d 14 bd ae a6 a0 3d
       -0.08710301 0.07102767 -0.036222078 0.078442916
0003a0 e6 c1 51 bd 58 20 14 3d 00 11 54 3c dc 3b 67 3d
       -0.051210307 0.036163658 0.012943506 0.05645357
0003b0 28 ab 19 3d fc 97 23 3d 0e 2f 8f bd e4 4c 96 3d
       0.037516743 0.039939865 -0.06991397 0.073388845
0003c0 dc a9 0d 3d 48 30 2a 3d d0 09 9b 3d c0 39 34 3b
       0.03458582 0.04154995 0.07570231 0.0027500242
0003d0 3a 52 75 bd 40 c6 07 bc f4 ee 87 3d 80 29 9b 3c
       -0.05989287 -0.008287013 0.066373736 0.018940687
0003e0 0e 61 b6 3d c4 17 82 3d 86 58 a8 bd 68 6d b0 3c
       0.089052305 0.06352189 -0.082200095 0.021536544
0003f0 56 a5 7d bd 62 3e c4 3d c2 6e 0e bd 18 a9 d5 3d
       -0.061925255 0.09582211 -0.034773596 0.10432643
